checkpoint_epoch30_lstm.pth (torch, 36891 bytes, 8 tensors)

input_embedding.weight f4 [32, 2]
8.4346124e-05 0.01445627 0.001130495 -0.0031100302 -0.05404064 -0.06161116 0.00057206466 0.01139005
0.010622437 0.010496147 0.005593042 0.0019890426 0.00093972805 -0.0032363923 -0.00015644854 -0.011014986
0.001613537 -0.006959902 -0.0017785698 -0.012064099 0.0007459794 0.0052605197 0.0008816174 -0.008993915
-0.003248501 0.002500018 0.0069285934 0.0005735093 -0.0007021767 -0.00889698 0.0028501968 -0.001925998
0.0041686855 -0.00042067646 0.0042390455 -0.00938751 -0.00064233626 0.0066396 -0.0010259671 -0.017161373
0.084822215 -0.107737914 -0.0044796155 0.0052176327 0.0049615055 0.01848503 0.0022501664 0.007442764
0.0060826424 -0.008730713 0.0006689186 0.005799034 -0.00024884936 0.014374455 0.0026710506 -0.0051659555
0.00788756 0.019314988 -0.0019740334 0.003762212 -0.0009854692 0.01076476 -0.051594913 -0.06940417
00000000: fbe2 b038 fed9 6c3c 1e2d 943a a6d1 4bbb
00000010: b859 5dbd fc5b 7cbd 9cf6 153a 559d 3a3c
00000020: bb09 2e3c 08f8 2b3c d645 b73b 995a 023b
00000030: 1558 763a a719 54bb 560c 24b9 3378 34bc
00000040: 517d d33a e40f e4bb e61e e9ba 80a8 45bc
00000050: d58d 433a 7060 ac3b 581c 673a 375b 13bc
00000060: cee4 54bb 58d7 233b 4109 e33b 8f57 163a
00000070: 4812 38ba a4c4 11bc 5eca 3a3b c571 fcba
00000080: 7899 883b 3d8e dcb9 b1e7 8a3b 12ce 19bc
00000090: 7562 28ba 0091 d93b be79 86ba 0296 8cbc
000000a0: 45b7 ad3d b2a5 dcbd bdc9 92bb adf8 aa3b
000000b0: 2094 a23b eb6d 973c 8777 133b 6ee2 f33b
000000c0: e750 c73b 440b 0fbc 5e5a 2f3a d305 be3b
000000d0: ff77 82b9 d682 6b3c cb0c 2f3b 2d47 a9bb
000000e0: d33a 013c 773a 9e3c c95e 01bb 728f 763b
000000f0: dc2a 81ba ad5e 303c 3055 53bd c623 8ebd

input_embedding.bias f4 [32]
-1.6850077 0.14252016 17.710735 0.018080797 -2.748407 -1.3711463 -3.244626 0.06807575
0.03485388 -0.18238923 -0.09347539 4.387035 0.10933195 -2.096261 3.6974993 -1.4523246
5.2136254 0.05943273 -3.7722495 7.6802297 -7.9177046 0.03184903 -5.9764256 -4.8736377
3.8377805 -2.8816166 -2.032117 0.513956 -13.599107 -1.4497749 -2.5021195 0.41592056
00000000: 55ae d7bf cef0 113e 96af 8d41 2e1e 943c
00000010: e6e5 2fc0 b981 afbf f4a7 4fc0 4c6b 8b3d
00000020: f1c2 0e3d 3ec4 3abe 0670 bfbd 9762 8c40
00000030: 6ee9 df3d 2429 06c0 d4a3 6c40 c6e5 b9bf
00000040: 05d6 a640 bc6f 733d 896c 71c0 71c4 f540
00000050: d65d fdc0 2174 023d e13e bfc0 d7f4 9bc0
00000060: 329e 7540 686c 38c0 340e 02c0 9f92 033f
00000070: f195 59c1 3992 b9bf ba22 20c0 8af3 d43e

lstm.weight_ih_l0 f4 [128, 32]
0.12233406 0.07754214 -0.86591405 0.225134 -0.07596014 0.15268314 -0.00048621124 -0.08224186
0.06474103 -0.034364652 -0.05964815 0.021928078 -0.107901715 -0.050445545 0.0029872037 -0.013790342
0.09740988 -0.0574731 0.02436654 -0.024881162 -0.72131395 -0.18634549 0.08245374 -0.11933477
0.04847472 0.11578829 -0.0005693405 0.21307673 0.029322213 -0.10977056 -0.07915217 -0.27380443
0.0007692957 -0.007881292 0.28298366 -0.024413772 0.046066236 -0.0061060586 -0.008638469 0.012358332
0.051325466 0.015112102 0.017496575 -0.017064458 0.004894448 0.032866307 -0.023036886 0.019145288
-0.008928567 0.009153434 -0.046813473 0.020110058 -0.086493455 0.00334098 0.008633452 0.012538193
0.012610345 -0.0020338355 -0.015389905 0.012851086 -0.0013194822 -0.005671586 -0.041927457 -0.14622076
-0.026042849 0.016807014 0.24275035 -0.037173312 0.0016517926 -0.04530727 0.010079843 0.024748242
0.020005215 -0.037548568 0.009108177 -0.0559799 0.06071247 0.033770714 0.022963388 0.0015089167
0.04663549 -0.0025316803 0.0017061436 -0.04392441 -0.17077835 -0.1113039 0.015059074 0.024730567
0.040264547 -0.0011761559 -0.018587083 0.011245693 -0.01617291 -0.036208935 -0.008804522 -0.18911743
0.012972014 -0.014134027 0.18621236 0.0070120622 0.024799526 0.00050009385 0.004470007 0.0070487726
0.0018347825 -0.0005763028 0.012675926 -0.0043972447 0.008263545 0.009215265 -0.0053707766 -0.0073885038
0.009249743 -0.0011591516 -0.016057223 0.0011340535 -0.07125413 0.016492154 -0.004507663 -0.009698208
-0.005393869 -0.019148532 -0.00095691124 -0.00095190795 -0.043929234 0.0076104635 0.012817171 -0.08822844
0.07175505 0.305548 -1.4952378 -0.6309086 -0.420678 0.6513133 0.37555274 0.16686279
-0.42821783 -0.21423545 0.01963673 0.013068549 0.15951388 0.08554656 -0.021171592 0.13948584
0.16037412 -0.09356098 0.30874333 0.2691438 0.583867 0.5012892 -0.38529345 0.057929356
0.5834833 -0.032500714 0.12063324 0.15168907 -0.35001996 -0.13270518 0.6092626 -0.6552844
0.009905929 -0.56951946 -0.77408886 -0.11648063 -0.11367489 0.054199558 0.1232594 0.43881494
0.19407448 0.05909955 0.3968016 0.2186746 0.5024201 0.09416874 0.097069174 0.056448333
0.20008653 -0.49612537 0.072365426 0.07130204 0.6145817 -0.9980075 -0.14273527 0.058313925
0.122115806 -0.1420588 0.06953178 -0.016572606 0.06433782 0.09071102 -0.23123322 -1.1421059
0.15753347 -0.2466517 -0.5487576 0.27458414 -0.028591491 -0.1125951 0.034653325 0.1024373
0.027190536 -0.06823133 -0.27046016 -0.12736319 -0.12583339 0.00074496 0.068889365 0.019010983
-0.17206456 0.17933676 0.3955066 0.00861022 -0.28768414 0.10251159 -0.17114 -0.14064093
0.07083308 -0.21708792 0.08567657 -0.045519058 -0.021956438 -0.052550122 0.12288132 -2.2659776
-0.030356525 -0.03440352 -0.6441451 0.05086147 -0.008290572 -0.043147743 0.011308801 0.023302037
-0.007702193 -0.015769022 -0.025868444 -0.008772477 0.04872085 -0.0011626667 0.037366454 0.028850341
-0.02289178 0.021843122 0.026573222 0.015136384 -0.2007851 -0.045950755 0.009270325 0.044079788
-0.0058055506 -0.0050505996 -0.057863437 0.0034774626 0.055991568 -0.02349329 0.0016648003 0.33966
00000000: 488a fa3d 6ace 9e3d 8bac 5dbf 8789 663e
00000010: fd90 9bbd f858 1c3e 2bea feb9 6c6e a8bd
00000020: f296 843d f3c1 0cbd 9e51 74bd 83a2 b33c
00000030: 93fb dcbd fd9f 4ebd f6c4 433b e3f0 61bc
00000040: d57e c73d ea68 6bbd 579c c73c 94d3 cbbc
00000050: 08a8 38bf 5ad1 3ebe 82dd a83d ca65 f4bd
00000060: 6e8d 463d 6922 ed3d cb3f 15ba c930 5a3e
00000070: 2335 f03c 63cf e0bd 881a a2bd 1830 8cbe
00000080: 8faa 493a 8920 01bc 3ce3 903e 64ff c7bc
00000090: f3af 3c3d 5515 c8bb 5d88 0dbc 9a7a 4a3c
000000a0: a73a 523d c098 773c fa54 8f3c c3ca 8bbc
000000b0: 9b61 a03b d29e 063d dab7 bcbc 94d6 9c3c
000000c0: 2049 12bc 49f8 153c 7cbf 3fbd d9bd a43c
000000d0: 7b23 b1bd 58f4 5a3b 5273 0d3c fe6c 4d3c
000000e0: 9f9b 4e3c 194a 05bb f125 7cbc 5d8d 523c
000000f0: 7af2 acba b6d8 b9bb 20bc 2bbd e5ba 15be
00000100: d057 d5bc ddae 893c 8c93 783e 0b43 18bd
00000110: f680 d83a 1e94 39bd ed25 253c d3bc ca3c
00000120: fae1 a33c 87cc 19bd 773a 153c 2e4b 65bd
00000130: a4ad 783d 2953 0a3d b71d bc3c d8c6 c53a
00000140: db04 3f3d 8cea 25bb aea0 df3a 15ea 33bd
00000150: 85e0 2ebe 4df3 e3bd 56ba 763c c297 ca3c
00000160: 70ec 243d 3e29 9aba f043 98bc db3f 383c
00000170: 0d7d 84bc d24f 14bd d840 10bc 00a8 41be
00000180: 9288 543c 6892 67bc 74ae 3e3e 71c5 e53b
00000190: 6028 cb3c bb18 033a 2379 923b 64f9 e63b
000001a0: 167d f03a 0713 17ba b0ae 4f3c c316 90bb
000001b0: d263 073c 9ffb 163c 57fd afbb 431b f2bb
000001c0: 3c8c 173c acee 97ba 708a 83bc 85a4 943a
000001d0: afed 91bd 8e1a 873c 05b5 93bb 3ce5 1ebc
000001e0: 0dbf b0bb 62dd 9cbc 3ad9 7aba 7689 79ba
000001f0: 24ef 33bd 3261 f93b 1dff 513c 1db1 b4bd
00000200: 50f4 923d ca70 9c3e f463 bfbf 3a83 21bf
00000210: 1b63 d7be 78bc 263f 7348 c03e 14de 2a3e
00000220: 5e3f dbbe 8a60 5bbe 35dd a03c 781d 563c
00000230: 9b57 233e 0933 af3d 0c70 adbc 60d5 0e3e
00000240: 1d39 243e e69c bfbd 9b13 9e3e 37cd 893e
00000250: 4f78 153f 7d54 003f 2f45 c5be 5547 6d3d
00000260: 295f 153f 781f 05bd 8f0e f73d 6154 1b3e
00000270: d135 b3be dee3 07be a2f8 1b3f b8c0 27bf
00000280: 7a4c 223c 07cc 11bf b02a 46bf 668d eebd
00000290: 61ce e8bd 5b00 5e3d 6d6f fc3d 5aac e03e
000002a0: 76bb 463e 5f12 723d 9429 cb3e 3cec 5f3e
000002b0: 9b9e 003f 8adb c03d 34cc c63d 5e36 673d
000002c0: 7ce3 4c3e 2504 febe 5334 943d ce06 923d
000002d0: 3a55 1d3f 6b7d 7fbf 3229 12be 95da 6e3d
000002e0: da17 fa3d dd77 11be ae66 8e3d 46c3 87bc
000002f0: 8cc3 833d b3c6 b93d 67c8 6cbe 8730 92bf
00000300: 7450 213e 4392 7cbe 617b 0cbf 4b96 8c3e
00000310: b438 eabc 4398 e6bd a5f0 0d3d a6ca d13d
00000320: b0be de3c debc 8bbd c179 8abe 7f6b 02be
00000330: 78da 00be 6b49 433a de15 8d3d ecbc 9b3c
00000340: b131 30be 0ea4 373e d77f ca3e e111 0d3c
00000350: 564b 93be 99f1 d13d 533f 2fbe 2d04 10be
00000360: ef10 913d 4c4c 5ebe 3377 af3d 3172 3abd
00000370: fddd b3bc cc3e 57bd 34a9 fb3d c705 11c0
00000380: 3fae f8bc b5ea 0cbd b1e6 24bf 1e54 503d
00000390: 2ed5 07bc b0bb 30bd 8d48 393c eae3 be3c
000003a0: ae62 fcbb 092e 81bc 0fea d3bc 6fba 0fbc
000003b0: 848f 473d 9f64 98ba 910d 193d 8d57 ec3c
000003c0: 8b87 bbbc 59f0 b23c 16b0 d93c 99fe 773c
000003d0: 9c9a 4dbe dc36 3cbd 90e2 173c 028d 343d
000003e0: 7d3c bebb 807f a5bb 3602 6dbd 24e6 633b
000003f0: 6a57 653d 0075 c0bc 6e35 da3a eae7 ad3e

lstm.weight_hh_l0 f4 [128, 32]
-6.5638843 -2.3467538 -5.7167616 2.4089932 1.4181678 -4.080212 2.788416 0.6418287
5.1447105 4.3818502 -6.8481627 0.09631102 0.6085745 -2.0500894 -2.363386 -2.2551813
-0.94021267 3.165618 -1.5434145 1.4700409 -0.5232893 3.8216197 4.417181 1.5488366
3.9614508 -1.5423999 1.8474913 -1.379385 1.1315445 -2.0037682 1.2931961 -2.192231
-0.3682637 -3.0479543 -0.50044733 8.292021 0.2483517 -0.9092633 1.235024 -0.30423698
0.2770198 -6.3305945 -0.37346077 0.761468 0.49771047 -0.37954575 0.008665823 -0.543126
-0.045043316 0.5346969 0.1413965 -1.7760504 0.83576 1.3421851 -0.48821914 -0.26286867
-2.0178676 0.23621629 -7.4736342 0.7520628 0.56755817 1.7009941 0.29934132 -1.0167549
0.05760539 -1.7771976 -8.91253 6.737814 1.6572379 2.0909386 0.099320024 3.1307862
-0.007976025 -2.1719582 -0.85442835 0.33382055 0.443834 0.6318369 -0.17728296 -1.4426599
0.20725098 1.9229236 -0.11767783 -0.85871655 0.83626217 1.2721232 -0.6222203 -0.057017587
-0.28114584 -0.39910975 -1.2676241 -1.7439198 0.21795502 1.5198287 -0.48590615 0.13303506
0.35376015 -1.0785394 -2.3464673 -1.7320352 -1.8423812 -0.74223274 -0.9983553 0.2708545
0.71063596 -33.966164 -0.77194595 18.22655 0.031467546 -1.0330371 -0.01521892 -1.3086568
-0.57672495 -2.4713945 -0.06847793 5.101534 1.6663841 2.0036 1.6710142 3.135282
-20.868109 0.98921144 -15.47819 0.31126943 10.684113 18.740154 8.890224 -1.86875
-0.60341257 -0.62856483 1.6303021 -0.5901772 -6.752136 0.6283692 -1.814838 0.5647162
1.0298088 -0.3337518 -1.092368 -0.9555518 -0.15753594 -0.24736424 -0.33918586 0.6876814
0.47592688 -0.82376933 1.1485089 0.50145984 -0.08776922 -0.68977964 0.6000328 5.3198495
-0.7815784 0.4821147 -0.30708003 0.27171674 -0.76885045 1.1508957 2.0721557 -0.9642183
-0.5939902 1.2530553 1.2488543 -2.7477386 -0.7944549 0.9267006 1.7401547 3.1634073
2.2956052 -1.1266868 -1.9130177 -0.527756 -3.5368662 -1.11673 -3.1518404 -0.009631686
2.4790988 0.41376892 3.1117105 0.091888435 -0.756498 0.08257579 0.6968573 3.0847769
-2.349672 -4.784196 0.6602699 -1.5025618 0.83969206 0.38111895 -0.036498066 0.42458373
-0.9427902 -0.38765004 -3.1414723 0.5047786 0.7714433 2.6600108 -0.59068936 0.21380606
-0.80570894 -5.7305584 0.6299716 -0.2563453 1.1397009 0.72499305 0.16093105 0.1991755
1.5705196 1.2485808 0.69073087 -0.803469 0.7952948 -0.13271476 -0.22833969 -2.5985732
-9.898689 -1.4143116 -4.595323 0.10813568 2.9047031 7.1570745 -0.19241677 1.5677911
3.0983012 -0.56938905 -1.77959 -1.2591529 1.6501422 1.0843568 0.053376485 7.5906425
0.47660893 -0.18704721 1.3130476 0.879715 -4.9573255 -0.5282465 0.04891065 -0.79773355
-1.2513349 0.9911565 -2.9128304 1.3356768 1.664208 -0.22926089 0.35477266 -0.37307754
-1.423602 -0.27775127 -0.033832703 -14.23407 0.43757167 -0.32307208 0.75056726 -0.31178114
00000000: 570b d2c0 3731 16c0 b6ef b6c0 f22c 1a40
00000010: 8686 b53f 1991 82c0 6875 3240 e34e 243f
00000020: 78a1 a440 1e38 8c40 2624 dbc0 b63e c53d
00000030: 8acb 1b3f aa34 03c0 b741 17c0 e454 10c0
00000040: c7b1 70bf 7c99 4a40 9b8e c5bf 4d2a bc3f
00000050: 4af6 05bf 6b95 7440 8c59 8d40 4740 c63f
00000060: 6988 7d40 5c6d c5bf 987a ec3f b08f b0bf
00000070: 73d6 903f bd3d 00c0 7387 a53f 834d 0cc0
00000080: 0f8d bcbe af11 43c0 511d 00bf 1eac 0441
00000090: e84f 7e3e 7bc5 68bf 4415 9e3f f3c4 9bbe
000000a0: 8ad5 8d3e 3b94 cac0 4036 bfbe 91ef 423f
000000b0: e8d3 fe3e d253 c2be 19fb 0d3c 4e0a 0bbf
000000c0: 577f 38bd e5e1 083f 3eca 103e 9f55 e3bf
000000d0: 5ef4 553f b9cc ab3f dcf7 f9be b996 86be
000000e0: be24 01c0 afe2 713e 0328 efc0 3087 403f
000000f0: 7e4b 113f 2dba d93f 4443 993e 0625 82bf
00000100: a1f3 6b3d 367b e3bf b999 0ec1 2c9c d740
00000110: 5f20 d43f f0d1 0540 4c68 cb3d cd5e 4840
00000120: e0ad 02bc 5d01 0bc0 d1bb 5abf 87ea aa3e
00000130: 363e e33e 10c0 213f aa89 35be 14a9 b8bf
00000140: 9a39 543e 5c22 f63f 1301 f1bd d9d4 5bbf
00000150: 4715 563f efd4 a23f d449 1fbf 468b 69bd
00000160: 59f2 8fbe 1d58 ccbe 8241 a2bf c438 dfbf
00000170: 9a2f 5f3e bf89 c23f b1c8 f8be 583a 083e
00000180: 0d20 b53e 940d 8abf 852c 16c0 54b3 ddbf
00000190: 26d3 ebbf f702 3ebf 3794 7fbf 71ad 8a3e
000001a0: 3dec 353f 5add 07c2 409e 45bf f9cf 9141
000001b0: 1de4 003d 8f3a 84bf c758 79bc 1182 a7bf
000001c0: 3fa4 13bf 542b 1ec0 283e 8cbd c43f a340
000001d0: 134c d53f fb3a 0040 cbe3 d53f 76a8 4840
000001e0: e3f1 a6c1 f63c 7d3f aba6 77c1 b55e 9f3e
000001f0: 20f2 2a41 d6eb 9541 5c3e 0e41 3333 efbf
00000200: 3f79 1abf a0e9 20bf bdad d03f da15 17bf
00000210: 8011 d8c0 cedc 203f 9d4c e8bf 3e91 103f
00000220: c6d0 833f 84e1 aabe b7d2 8bbf 0b9f 74bf
00000230: 1a51 21be 0d4d 7dbe c5a9 adbe e30b 303f
00000240: b0ac f33e 8ce2 52bf 5702 933f ac5f 003f
00000250: 59c0 b3bd 6695 30bf c09b 193f 353c aa40
00000260: 8615 48bf bdd7 f63e 9839 9dbe 751e 8b3e
00000270: 62d3 44bf 8d50 933f 339e 0440 03d7 76bf
00000280: be0f 18bf 1e64 a03f 75da 9f3f f3da 2fc0
00000290: 6561 4bbf 403c 6d3f 64bd de3f 4475 4a40
000002a0: 32eb 1240 4637 90bf c4dd f4bf 041b 07bf
000002b0: 045c 62c0 02f1 8ebf c1b7 49c0 38ce 1dbc
000002c0: 8ea9 1e40 85d9 d33e 4426 4740 0130 bc3d
000002d0: daa9 41bf 7f1d a93d 3d65 323f fc6c 4540
000002e0: 0761 16c0 2218 99c0 7307 293f f253 c0bf
000002f0: 0ff6 563f 0622 c33e ff7e 15bd 0a63 d93e
00000300: b35a 71bf 117a c6be e20d 49c0 2c39 013f
00000310: 4f7d 453f 9e3d 2a40 6b37 17bf faef 5a3e
00000320: f142 4ebf bc60 b7c0 d245 213f b13f 83be
00000330: b8e1 913f 2599 393f 1ccb 243e aaf4 4b3e
00000340: c906 c93f 7fd1 9f3f bdd3 303f 25b0 4dbf
00000350: 7198 4b3f 61e6 07be e1d1 69be 064f 26c0
00000360: 0861 1ec1 2a08 b5bf e30c 93c0 3d76 dd3d
00000370: a8e6 3940 c106 e540 e708 45be 61ad c83f
00000380: 914a 4640 7bc3 11bf 9bc9 e3bf ec2b a1bf
00000390: dc37 d33f 34cc 8a3f 4da1 5a3d 8be6 f240
000003a0: 1606 f43e 4e89 3fbe f211 a83f 0135 613f
000003b0: 69a2 9ec0 2a3b 07bf 8956 483d 4438 4cbf
000003c0: be2b a0bf 6fbc 7d3f d06b 3ac0 75f7 aa3f
000003d0: c504 d53f 5ec3 6abe c3a4 b53e 0504 bfbe
000003e0: 9738 b6bf 6a35 8ebe 2994 0abd c0be 63c1
000003f0: 6509 e03e b469 a5be 2d25 403f c7a1 9fbe

lstm.bias_ih_l0 f4 [128]
1.1608989 2.2697344 3.4080136 -0.97528243 0.82199615 0.45182946 0.5386889 -3.9991462
0.5119905 2.1006851 0.45059392 -1.7563468 -2.0485406 0.13085663 0.86584055 -13.638693
0.83336425 -0.19557515 0.7316827 -5.91462 0.8164041 -10.346393 -1.1709008 1.0209002
0.2969704 0.32314 0.7365987 -7.232122 -2.585557 1.3926662 -5.2590694 -6.458707
0.3086472 1.0776693 0.37981242 0.20440668 0.07922792 0.5717527 0.33637273 0.21578848
-1.6860379 0.23225194 0.33826223 -1.5525079 0.31708986 0.10739072 -3.6139398 0.7971865
0.2779733 0.32686073 -0.6979539 0.08296735 0.51441777 0.3329022 -1.3528898 0.6327314
0.47634435 -2.7320864 0.51033354 -1.9524437 -0.18490422 1.251872 0.058443993 -0.09039868
0.71045375 1.4520979 0.9055897 -0.7944977 0.627992 0.26616195 0.5201615 -0.35384926
-0.31505868 0.631375 0.024013512 -0.25320128 0.12213046 0.64985377 -0.7654756 0.44212666
-0.5330104 0.6698225 -0.7146909 -0.58577555 -0.5356341 -0.23840733 -0.5095603 -0.62562746
0.5999296 -0.53939855 0.25070757 0.2911496 -1.1377668 -0.64651227 -0.31675202 -0.3994741
-1.3741404 -1.1308371 1.4725268 1.5228757 -5.803517 -2.3337052 -1.5761962 -1.7294123
-6.658556 -4.046274 -6.670581 -2.4618716 -1.6701326 -5.1361823 -0.43394193 -0.06778343
-3.1323042 -1.583816 -3.5436115 -3.1468167 0.37306118 0.3717113 -5.7340174 -1.1303815
-4.058924 1.445741 -5.5919027 -1.953021 -0.26953834 -4.5873494 -3.6900516 0.51103103
00000000: 5698 943f 5443 1140 e51c 5a40 1cac 79bf
00000010: 576e 523f 3156 e73e 84e7 093f 03f2 7fc0
00000020: cf11 033f a071 0640 3fb4 e63e f9cf e0bf
00000030: 4a1b 03c0 48ff 053e baa7 5d3f 1638 5ac1
00000040: 5c57 553f da44 48be 8f4f 3b3f 9144 bdc0
00000050: dcff 503f d38a 25c1 14e0 95bf dcac 823f
00000060: 810c 983e 9b72 a53e bb91 3c3f 8b6d e7c0
00000070: c479 25c0 e342 b23f 4c4a a8c0 baad cec0
00000080: 0107 9e3e 11f1 893f c676 c23e fc4f 513e
00000090: 3f42 a23d 635e 123f 0c39 ac3e a8f7 5c3e
000000a0: 17d0 d7bf 74d3 6d3e b530 ad3e 94b8 c6bf
000000b0: 9a59 a23e aaef db3d ca4a 67c0 6a14 4c3f
000000c0: 8452 8e3e 4a5a a73e 1bad 32bf c9ea a93d
000000d0: e2b0 033f 2872 aa3e 7e2b adbf affa 213f
000000e0: 68e3 f33e 81da 2ec0 38a5 023f ade9 f9bf
000000f0: 8857 3dbe 573d a03f f862 6f3d f122 b9bd
00000100: 4ce0 353f 58de b93f bad4 673f 3464 4bbf
00000110: 15c4 203f 6146 883e 4e29 053f bb2b b5be
00000120: 5f4f a1be cba1 213f fcb7 c43c 99a3 81be
00000130: 891f fa3d d15c 263f 35f6 43bf 6d5e e23e
00000140: 5f73 08bf 7d79 2b3f fcf5 36bf 63f5 15bf
00000150: 511f 09bf 0d21 74be 8b72 02bf 1f29 20bf
00000160: fc94 193f 0616 0abf be5c 803e 8f11 953e
00000170: 58a2 91bf d481 25bf 522d a2be df87 ccbe
00000180: d5e3 afbf 45bf 90bf c27b bc3f 97ed c23f
00000190: 69b6 b9c0 6d5b 15c0 ccc0 c9bf 625d ddbf
000001a0: e412 d5c0 147b 81c0 6675 d5c0 4e8f 1dc0
000001b0: e8c6 d5bf 9b5b a4c0 a32d debe 0ad2 8abd
000001c0: ac77 48c0 7cba cabf 88ca 62c0 7265 49c0
000001d0: e001 bf3e f250 be3e 127d b7c0 57b0 90bf
000001e0: b5e2 81c0 0b0e b93f def0 b2c0 98fc f9bf
000001f0: ee00 8abe 91cb 92c0 ce29 6cc0 eed2 023f

lstm.bias_hh_l0 f4 [128]
1.1140339 2.36224 3.4323308 -0.7237185 0.6882605 0.3827054 0.5769739 -4.026756
0.3014473 2.0117486 0.59581715 -1.7776549 -1.9791939 0.22453015 0.5261345 -13.424176
0.7632661 -0.12356715 0.9148146 -5.8814735 0.8437729 -10.354503 -1.2488881 1.1982703
0.34026796 0.5915803 0.7693522 -7.2613344 -2.5040078 1.2673607 -5.1795945 -6.3276033
0.4727096 1.0390959 0.37026128 0.20642929 -0.0408002 0.4972069 0.3601827 0.060689833
-1.5104699 0.31342965 0.44706613 -1.2983034 0.041290715 0.099305496 -3.3255584 0.46639863
0.36815432 0.529344 -0.597446 0.09315175 0.6768455 0.18567598 -1.060489 0.6253031
0.5440611 -2.6409652 0.43635273 -1.9112997 -0.18351349 1.2688941 0.28474513 -0.03053627
0.5276486 1.677667 0.9195491 -0.8298119 0.73109764 0.2849483 0.64098394 -0.5467435
-0.38506612 0.88519126 0.053751692 -0.3870817 0.19147895 0.49104893 -0.88191843 0.36570662
-0.4192343 0.5874284 -0.6721287 -0.49749473 -0.5256842 -0.38601705 -0.28000462 -0.69188046
0.81747514 -0.46808824 0.45610762 0.32721817 -1.313431 -0.37846333 -0.3778389 -0.28635952
-1.1890975 -1.1397887 1.686386 1.317948 -5.5495315 -2.3153474 -1.6473677 -1.585486
-6.467555 -4.086432 -6.701327 -2.3725545 -1.6687766 -5.0249424 -0.60852545 -0.057900727
-3.2056684 -1.7409352 -3.6421435 -3.2494311 0.4021349 0.5365425 -5.52764 -1.1911808
-4.283653 1.3466221 -5.33699 -2.1678877 -0.09430949 -4.6911664 -3.7051487 0.40010348
00000000: aa98 8e3f f12e 1740 4fab 5b40 9e45 39bf
00000010: d731 303f f6f1 c33e 90b4 133f 2fdb 80c0
00000020: 4d57 9a3e 7dc0 0040 7987 183f 328a e3bf
00000030: 3a56 fdbf 3beb 653e c0b0 063f 6dc9 56c1
00000040: 6865 433f c610 fdbd 4a31 6a3f 0835 bcc0
00000050: 8001 583f 0bac 25c1 91db 9fbf ec60 993f
00000060: 9a37 ae3e ce71 173f 44f4 443f da5c e8c0
00000070: aa41 20c0 e038 a23f 3dbf a5c0 ba7b cac0
00000080: fe06 f23e 1801 853f e392 bd3e 3362 533e
00000090: 1c1e 27bd e791 fe3e de69 b83e e795 783d
000000a0: 1457 c1bf da79 a03e dae5 e43e ce2e a6bf
000000b0: 7420 293d ae60 cb3d f3d5 54c0 cdcb ee3e
000000c0: b97e bc3e 1783 073f 39f2 18bf 58c6 be3d
000000d0: bf45 2d3f d821 3e3e 1bbe 87bf dd13 203f
000000e0: 9747 0b3f 9305 29c0 a069 df3e 78a5 f4bf
000000f0: f6ea 3bbe 1f6b a23f 1dca 913e 3327 fabc
00000100: fb13 073f cbbd d63f 9267 6b3f 8d6e 54bf
00000110: 3729 3b3f bee4 913e 8617 243f 62f7 0bbf
00000120: 6327 c5be e59b 623f bc2a 5c3d 932f c6be
00000130: 0f13 443e c46a fb3e 68c5 61bf e63d bb3e
00000140: e1a5 d6be b561 163f a010 2cbf a1b7 febe
00000150: 3d93 06bf 07a4 c5be c45c 8fbe 141f 31bf
00000160: 0d46 513f 43a9 efbe f086 e93e 2489 a73e
00000170: 821e a8bf f2c5 c1be 1a74 c1be b79d 92be
00000180: 5934 98bf 99e4 91bf 7fdb d73f 85b2 a83f
00000190: c395 b1c0 a72e 14c0 f2dc d2bf 35f1 cabf
000001a0: 36f6 cec0 0dc4 82c0 4571 d6c0 efd7 17c0
000001b0: 799a d5bf 54cc a0c0 53c8 1bbf 5029 6dbd
000001c0: ac29 4dc0 f7d6 debf e118 69c0 aef6 4fc0
000001d0: a0e4 cd3e d95a 093f 6de2 b0c0 9d78 98bf
000001e0: af13 89c0 1d5e ac3f 9fc8 aac0 acbe 0ac0
000001f0: 5525 c1bd 091e 96c0 2821 6dc0 5dda cc3e

head.weight f4 [6, 32]
12.822323 -136.96873 -73.38928 68.9735 128.9459 105.36468 54.26921 -8.602609
-71.71182 87.18927 60.553303 -99.04565 1.8287499 91.80889 17.60007 121.46329
-5.6224723 77.28358 -21.426376 -115.51989 -100.538086 -138.87709 -93.5969 -116.98697
106.1209 -52.67236 108.33023 3.1369762 107.102516 -101.888794 -105.75987 119.99214
114.94453 42.38416 53.596924 -25.48566 45.37059 -33.741676 108.541595 -98.267456
-72.208405 -9.22864 92.145775 -41.492542 109.519646 57.564114 99.595184 32.79912
-123.45988 -68.91407 -114.91829 8.384615 19.154514 29.067148 -49.56969 63.16161
-5.818175 43.053688 -33.516853 142.56197 -38.713425 22.2994 -21.835247 -14.075371
11.721089 -136.93695 -77.054924 48.262974 126.45909 105.46662 51.06075 -8.502366
-75.03799 105.29945 63.02301 -99.09326 -1.3062054 95.342995 18.38832 113.825745
-5.185722 78.40642 -23.256748 -110.34395 -96.645035 -123.346596 -97.56701 -109.48606
109.45352 -51.943485 121.79216 4.2884526 103.34757 -118.27429 -103.011665 110.49902
121.96729 45.81022 53.8699 -26.56545 46.042355 -35.590366 110.8993 -89.30163
-75.15178 -8.690187 96.53731 -42.65865 97.831894 59.6374 105.16896 33.419624
-129.5625 -70.48982 -125.35698 7.431891 18.101181 28.618984 -51.254055 66.17155
-5.9952865 45.33044 -36.291836 128.07234 -39.0413 25.460913 -21.040314 -14.422418
10.660894 -137.09888 -80.35045 28.253246 122.525116 105.483406 47.571167 -8.315754
-78.19586 123.136185 65.39261 -99.25413 -4.4649525 98.668884 19.137325 106.59439
-4.701716 79.281334 -24.914442 -105.448 -92.911964 -108.81447 -101.22956 -101.27562
112.5998 -51.058468 134.68527 5.355855 99.78479 -134.16034 -100.48903 101.806305
128.63632 48.970455 54.182198 -27.119839 46.385136 -36.708183 112.364685 -81.34933
-77.73328 -8.217257 100.45155 -43.59959 87.32387 61.434383 110.24381 34.117317
-135.09131 -71.94692 -134.70378 6.4413247 16.884413 27.97724 -52.702 68.75945
-6.099651 47.41707 -38.784134 114.991844 -39.26397 28.471327 -20.204548 -14.508624
00000000: 3c28 4d41 fff7 08c3 50c7 92c2 6ff2 8942
00000010: 27f2 0043 b7ba d242 ac13 5942 49a4 09c1
00000020: 746c 8fc2 e860 ae42 9536 7242 5f17 c6c2
00000030: 7a14 ea3f 279e b742 f2cc 8c41 34ed f242
00000040: 4beb b3c0 3191 9a42 3869 abc1 2f0a e7c2
00000050: 8013 c9c2 89e0 0ac3 9d31 bbc2 54f9 e9c2
00000060: e73d d442 7fb0 52c2 14a9 d842 38c4 4840
00000070: 7d34 d642 10c7 cbc2 0e85 d3c2 fafb ef42
00000080: 99e3 e542 6189 2942 4063 5642 a2e2 cbc1
00000090: 7c7b 3542 7af7 06c2 4c15 d942 f088 c4c2
000000a0: b46a 90c2 82a8 13c1 a34a b842 5df8 25c2
000000b0: 0f0a db42 a741 6642 bc30 c742 4d32 0342
000000c0: 75eb f6c2 01d4 89c2 2ad6 e5c2 6227 0641
000000d0: 723c 9941 8589 e841 5d47 46c2 7da5 7c42
000000e0: 7d2e bac0 fa36 2c42 4211 06c2 dd8f 0e43
000000f0: 8cda 1ac2 2c65 b241 96ae aec1 b834 61c1
00000100: 9589 3b41 dcef 08c3 1f1c 9ac2 490d 4142
00000110: 0eeb fc42 e9ee d242 353e 4c42 b109 08c1
00000120: 7313 96c2 5299 d242 9017 7c42 c02f c6c2
00000130: bd31 a7bf 9daf be42 481b 9341 c8a6 e342
00000140: 6ff1 a5c0 16d0 9c42 d20d bac1 1ab0 dcc2
00000150: 424a c1c2 75b1 f6c2 4f22 c3c2 ddf8 dac2
00000160: 34e8 da42 21c6 4fc2 9695 f342 013b 8940
00000170: f5b1 ce42 708c ecc2 f905 cec2 80ff dc42
00000180: 41ef f342 aa3d 3742 c77a 5742 0b86 d4c1
00000190: 5f2b 3842 895c 0ec2 71cc dd42 6f9a b2c2
000001a0: b64d 96c2 020b 0bc1 1a13 c142 75a2 2ac2
000001b0: eea9 c342 b38c 6e42 8256 d242 b2ad 0542
000001c0: 0090 01c3 cafa 8cc2 c6b6 fac2 0dd2 ed40
000001d0: 38cf 9041 aef3 e441 2704 4dc2 d557 8442
000001e0: 63d9 bfc0 5f52 3542 d72a 11c2 8512 0043
000001f0: 4b2a 1cc2 f3af cb41 9052 a8c1 39c2 66c1
00000200: 0693 2a41 5019 09c3 6eb3 a0c2 a606 e241
00000210: dc0c f542 81f7 d242 e048 3e42 540d 05c1
00000220: 4864 9cc2 ba45 f642 04c9 8242 1d82 c6c2
00000230: e4e0 8ec0 7856 c542 3e19 9941 5430 d542
00000240: 7574 96c0 0b90 9e42 c750 c7c1 60e5 d2c2
00000250: edd2 b9c2 02a1 d9c2 8975 cac2 1e8d cac2
00000260: 1933 e142 df3b 4cc2 6eaf 0643 2a63 ab40
00000270: d091 c742 0c29 06c3 62fa c8c2 d49c cb42
00000280: e6a2 0043 bfe1 4342 92ba 5842 6ef5 d8c1
00000290: 618a 3942 2ed5 12c2 b8ba e042 dbb2 a2c2
000002a0: 7077 9bc2 e279 03c1 32e7 c842 fb65 2ec2
000002b0: d2a5 ae42 cfbc 7542 d57c dc42 2278 0842
000002c0: 6017 07c3 d3e4 8fc2 2bb4 06c3 551f ce40
000002d0: 4713 8741 63d1 df41 d9ce 52c2 d784 8942
000002e0: 5730 c3c0 14ab 3d42 f422 1bc2 d3fb e542
000002f0: 4e0e 1dc2 47c5 e341 eaa2 a1c1 5323 68c1

head.bias f4 [6]
72.466896 74.94364 61.808212 77.3702 52.151 79.74218
00000000: 0def 9042 25e3 9542 9c3b 7742 8bbd 9a42
00000010: a09a 5042 ff7b 9f42
